Model: "sequential"
+--------------------------------------------------------------------------+
| Layer (type)                    | Output Shape           |       Param # |
|---------------------------------+------------------------+---------------|
| mobilenetv2_1.00_224            | (None, 7, 7, 1280)     |     2,257,984 |
| (Functional)                    |                        |               |
|---------------------------------+------------------------+---------------|
| global_average_pooling2d        | (None, 1280)           |             0 |
| (GlobalAveragePooling2D)        |                        |               |
|---------------------------------+------------------------+---------------|
| dense (Dense)                   | (None, 128)            |       163,968 |
|---------------------------------+------------------------+---------------|
| dropout (Dropout)               | (None, 128)            |             0 |
|---------------------------------+------------------------+---------------|
| dense_1 (Dense)                 | (None, 6)              |           774 |
+--------------------------------------------------------------------------+
 Total params: 2,422,726 (9.24 MB)
 Trainable params: 2,026,182 (7.73 MB)
 Non-trainable params: 396,544 (1.51 MB)
